module {
  aie.device(npu2) {
    %tile_0_2 = aie.tile(0, 2) {controller_id = #aie.packet_info<pkt_type = 0, pkt_id = 27>}
    %shim_noc_tile_0_0 = aie.tile(0, 0) {controller_id = #aie.packet_info<pkt_type = 0, pkt_id = 15>}
    %out_cons_prod_lock_0 = aie.lock(%shim_noc_tile_0_0, 2) {init = 0 : i32, sym_name = "out_cons_prod_lock_0"}
    %out_cons_cons_lock_0 = aie.lock(%shim_noc_tile_0_0, 3) {init = 0 : i32, sym_name = "out_cons_cons_lock_0"}
    %out_buff_0 = aie.buffer(%tile_0_2) {address = 1024 : i32, mem_bank = 0 : i32, sym_name = "out_buff_0"} : memref<4096xi8> 
    %out_buff_1 = aie.buffer(%tile_0_2) {address = 16384 : i32, mem_bank = 1 : i32, sym_name = "out_buff_1"} : memref<4096xi8> 
    %out_prod_lock_0 = aie.lock(%tile_0_2, 2) {init = 2 : i32, sym_name = "out_prod_lock_0"}
    %out_cons_lock_0 = aie.lock(%tile_0_2, 3) {init = 0 : i32, sym_name = "out_cons_lock_0"}
    %in_cons_buff_0 = aie.buffer(%tile_0_2) {address = 32768 : i32, mem_bank = 2 : i32, sym_name = "in_cons_buff_0"} : memref<4096xi8> 
    %in_cons_buff_1 = aie.buffer(%tile_0_2) {address = 49152 : i32, mem_bank = 3 : i32, sym_name = "in_cons_buff_1"} : memref<4096xi8> 
    %in_cons_prod_lock_0 = aie.lock(%tile_0_2, 0) {init = 2 : i32, sym_name = "in_cons_prod_lock_0"}
    %in_cons_cons_lock_0 = aie.lock(%tile_0_2, 1) {init = 0 : i32, sym_name = "in_cons_cons_lock_0"}
    %in_prod_lock_0 = aie.lock(%shim_noc_tile_0_0, 0) {init = 0 : i32, sym_name = "in_prod_lock_0"}
    %in_cons_lock_0 = aie.lock(%shim_noc_tile_0_0, 1) {init = 0 : i32, sym_name = "in_cons_lock_0"}
    func.func @passthrough_fn(%arg0: memref<4096xi8>, %arg1: memref<4096xi8>, %arg2: i32) {
      %c1 = arith.constant 1 : index
      %c0 = arith.constant 0 : index
      %0 = arith.index_cast %arg2 : i32 to index
      cf.br ^bb1(%c0 : index)
    ^bb1(%1: index):  // 2 preds: ^bb0, ^bb2
      %2 = arith.cmpi slt, %1, %0 : index
      cf.cond_br %2, ^bb2, ^bb3
    ^bb2:  // pred: ^bb1
      %3 = memref.load %arg0[%1] : memref<4096xi8>
      memref.store %3, %arg1[%1] : memref<4096xi8>
      %4 = arith.addi %1, %c1 : index
      cf.br ^bb1(%4 : index)
    ^bb3:  // pred: ^bb1
      return
    }
    %core_0_2 = aie.core(%tile_0_2) {
      aie.end
    } {elf_file = "/media/piloteer/SAMSUNG_EXT/XDNA/gr-mlir-aie/aie-kernel-src/build/aie.mlir.prj/main_core_0_2.elf"}
    memref.global "private" constant @blockwrite_data_0 : memref<8xi32> = dense<[4096, 0, 0, 0, -1073741824, 33554432, 0, 33554432]>
    aie.runtime_sequence(%arg0: memref<16384xi8>, %arg1: memref<16384xi8>, %arg2: memref<16384xi8>) {
      %0 = memref.get_global @blockwrite_data_0 : memref<8xi32>
      aiex.npu.blockwrite(%0) {address = 118784 : ui32} : memref<8xi32>
      aiex.npu.address_patch {addr = 118788 : ui32, arg_idx = 0 : i32, arg_plus = 0 : i32}
      aiex.npu.write32 {address = 119316 : ui32, value = 0 : ui32}
      %1 = memref.get_global @blockwrite_data_0 : memref<8xi32>
      aiex.npu.blockwrite(%1) {address = 118816 : ui32} : memref<8xi32>
      aiex.npu.address_patch {addr = 118820 : ui32, arg_idx = 1 : i32, arg_plus = 0 : i32}
      aiex.npu.maskwrite32 {address = 119296 : ui32, mask = 7936 : ui32, value = 3840 : ui32}
      aiex.npu.write32 {address = 119300 : ui32, value = 2147483649 : ui32}
      aiex.npu.sync {channel = 0 : i32, column = 0 : i32, column_num = 1 : i32, direction = 0 : i32, row = 0 : i32, row_num = 1 : i32}
    }
    aie.shim_dma_allocation @in_shim_alloc(%shim_noc_tile_0_0, MM2S, 0)
    %mem_0_2 = aie.mem(%tile_0_2) {
      %0 = aie.dma_start(S2MM, 0, ^bb1, ^bb3)
    ^bb1:  // 2 preds: ^bb0, ^bb2
      aie.use_lock(%in_cons_prod_lock_0, AcquireGreaterEqual, 1)
      aie.dma_bd(%in_cons_buff_0 : memref<4096xi8>, 0, 4096) {bd_id = 0 : i32, next_bd_id = 1 : i32}
      aie.use_lock(%in_cons_cons_lock_0, Release, 1)
      aie.next_bd ^bb2
    ^bb2:  // pred: ^bb1
      aie.use_lock(%in_cons_prod_lock_0, AcquireGreaterEqual, 1)
      aie.dma_bd(%in_cons_buff_1 : memref<4096xi8>, 0, 4096) {bd_id = 1 : i32, next_bd_id = 0 : i32}
      aie.use_lock(%in_cons_cons_lock_0, Release, 1)
      aie.next_bd ^bb1
    ^bb3:  // pred: ^bb0
      %1 = aie.dma_start(MM2S, 0, ^bb4, ^bb6)
    ^bb4:  // 2 preds: ^bb3, ^bb5
      aie.use_lock(%out_cons_lock_0, AcquireGreaterEqual, 1)
      aie.dma_bd(%out_buff_0 : memref<4096xi8>, 0, 4096) {bd_id = 2 : i32, next_bd_id = 3 : i32}
      aie.use_lock(%out_prod_lock_0, Release, 1)
      aie.next_bd ^bb5
    ^bb5:  // pred: ^bb4
      aie.use_lock(%out_cons_lock_0, AcquireGreaterEqual, 1)
      aie.dma_bd(%out_buff_1 : memref<4096xi8>, 0, 4096) {bd_id = 3 : i32, next_bd_id = 2 : i32}
      aie.use_lock(%out_prod_lock_0, Release, 1)
      aie.next_bd ^bb4
    ^bb6:  // pred: ^bb3
      aie.end
    }
    aie.shim_dma_allocation @out_shim_alloc(%shim_noc_tile_0_0, S2MM, 0)
    aie.packet_flow(15) {
      aie.packet_source<%shim_noc_tile_0_0, TileControl : 0>
      aie.packet_dest<%shim_noc_tile_0_0, South : 0>
    } {keep_pkt_header = true, priority_route = true}
    %switchbox_0_0 = aie.switchbox(%shim_noc_tile_0_0) {
      aie.connect<South : 3, North : 1>
      aie.connect<North : 0, South : 2>
      %0 = aie.amsel<5> (3)
      %1 = aie.masterset(South : 0, %0) {keep_pkt_header = true}
      aie.packet_rules(TileControl : 0) {
        aie.rule(31, 15, %0)
      }
    }
    %shim_mux_0_0 = aie.shim_mux(%shim_noc_tile_0_0) {
      aie.connect<DMA : 0, North : 3>
      aie.connect<North : 2, DMA : 0>
    }
    %mem_tile_0_1 = aie.tile(0, 1)
    %switchbox_0_1 = aie.switchbox(%mem_tile_0_1) {
      aie.connect<South : 1, North : 1>
      aie.connect<North : 0, South : 0>
    }
    %switchbox_0_2 = aie.switchbox(%tile_0_2) {
      aie.connect<South : 1, DMA : 0>
      aie.connect<DMA : 0, South : 0>
    }
    aie.wire(%shim_mux_0_0 : North, %switchbox_0_0 : South)
    aie.wire(%shim_noc_tile_0_0 : DMA, %shim_mux_0_0 : DMA)
    aie.wire(%mem_tile_0_1 : Core, %switchbox_0_1 : Core)
    aie.wire(%mem_tile_0_1 : DMA, %switchbox_0_1 : DMA)
    aie.wire(%switchbox_0_0 : North, %switchbox_0_1 : South)
    aie.wire(%tile_0_2 : Core, %switchbox_0_2 : Core)
    aie.wire(%tile_0_2 : DMA, %switchbox_0_2 : DMA)
    aie.wire(%switchbox_0_1 : North, %switchbox_0_2 : South)
  }
}
